work01/LeNet.pkl (torch, 808722 bytes, 12 tensors)

weight f4 [32, 1, 5, 5]
000000 b1 51 f4 3d aa 41 5a bd c7 b0 e0 bc 1f 63 84 be
       0.11929644 -0.05328528 -0.027428044 -0.25856873
000010 6c c1 c1 bd 1a fa 1a 3e ea 45 ba 3e 13 ce 67 3e
       -0.094607204 0.15134469 0.36381465 0.22637205
000020 c1 1f b0 3c d2 e5 62 be 77 bb 18 be 67 90 8a 3e
       0.021499516 -0.22157982 -0.14915262 0.27063295
000030 78 e6 8e bd 97 37 47 be e7 32 8a bd 09 8b 9c 3d
       -0.06977552 -0.194548 -0.0674799 0.07643706
000040 76 60 51 3e 56 51 8a bd 95 e1 04 3e 85 db 5d be
       0.20446953 -0.06753795 0.12976678 -0.21665771
000050 c0 62 45 bd d4 c7 ac 3d 7f bd 76 3e 71 41 65 3e
       -0.04818988 0.08436552 0.24095725 0.22388245
000060 9b dc 1a 3e 08 c5 90 bd d6 db 1d bd ba 79 16 3e
       0.15123217 -0.07068831 -0.03853973 0.14694872
000070 73 71 82 be c5 71 e7 3d a9 21 22 3e 18 e7 3e 3e
       -0.2547718 0.11300997 0.15833153 0.18642843
000080 ac 6f 1b 3d be 22 44 be 12 97 28 3c f9 5f 61 be
       0.037948295 -0.19153878 0.010289924 -0.22009267
000090 b5 0c 7f 3e 3e ed b1 3e 9b 42 d6 3d d3 d7 f3 bd
       0.24907191 0.34751314 0.10461923 -0.119063996
0000a0 73 c9 dc 3d fc e5 af 3d f0 89 96 3e d9 94 32 be
       0.10780611 0.08588788 0.29402113 -0.17439593
0000b0 cf d8 1d be 7f 04 88 be dc 22 88 3c 71 ac ae bd
       -0.15414737 -0.2656593 0.016618185 -0.08528984
0000c0 55 ad f9 3d d3 72 83 bd ae f4 97 be 6d f8 eb 3d
       0.121912636 -0.06418385 -0.29678863 0.11521993
0000d0 be 89 9d 3d 57 01 86 be dc 76 16 3e e5 4d f7 3d
       0.07692288 -0.26172897 0.14693779 0.12075404
0000e0 e9 22 a5 3d 55 13 69 bc f7 2d 37 be 1c 44 86 3d
       0.08063299 -0.0142258005 -0.17888628 0.065559596
0000f0 02 2c b0 3d 4c 4d ad 3e c7 a1 d1 3e b1 83 c7 3e
       0.08602144 0.33848035 0.4094374 0.3896766
000100 63 b2 94 3e 53 77 25 3e 66 bd 9f bd d2 bf a3 bc
       0.29042348 0.161588 -0.07799797 -0.019988928
000110 d1 8c 4c be ac 56 90 3c cb 0b fc bd 4c 02 0c 3e
       -0.19975592 0.017619453 -0.12306937 0.13672751
000120 1d bc 88 be eb 43 a9 be 1d bd e7 bc 13 0b 41 be
       -0.2670602 -0.3305963 -0.028288418 -0.1885188
000130 dd 1d 95 3e 1a 6c c7 bc 32 3c 0f be 37 61 1a 3e
       0.29124346 -0.024343539 -0.13987806 0.15076147
000140 27 3b 25 3e 5e b0 7a 3e 43 a7 3a 3d b8 6a 33 3e
       0.16135846 0.24481341 0.04556967 0.17521179
000150 92 da 65 3d 71 b0 1e 3e ce 18 75 3e bd cb 4e bd
       0.056116648 0.15496995 0.23935243 -0.05048727
000160 f1 a4 c7 bd 68 98 17 3e 7a 82 7c 3d 27 36 9a 3e
       -0.09748257 0.14804232 0.06164787 0.3011944
000170 49 d3 a4 3d e8 8f 3c be 49 d1 d5 bd 6f 86 01 3d
       0.08048112 -0.18414271 -0.104403086 0.031622346
000180 34 af 3e 3e 99 73 9c bc ae bc 4e be d5 c4 67 bd
       0.18621522 -0.01909809 -0.20189163 -0.056584198
000190 ce 53 90 bd 97 01 f1 3d b3 95 97 bd ab 4e aa 3c
       -0.070472345 0.11767881 -0.074016 0.020789465
0001a0 69 b5 82 3d 08 c1 a3 3c d0 20 89 be f0 0f 99 bb
       0.063822575 0.019989505 -0.26782846 -0.0046710894
0001b0 24 78 4a be 5c 79 f1 3d 60 c3 cd 3d 49 e4 ef 3d
       -0.19772393 0.117907256 0.100470304 0.11713464
0001c0 a3 ec bd 3e aa 7c 97 3e fd 18 d7 3d fe f5 08 3e
       0.37094602 0.295873 0.10502813 0.13375089
0001d0 92 a6 0b bc cd eb 09 3e 27 3d 14 bd e0 67 4a be
       -0.0085236 0.13468857 -0.036191132 -0.19766188
0001e0 f6 41 79 3d fa 10 ac bb f4 bd f2 bc b3 da 7e 3d
       0.06085392 -0.005251047 -0.029631592 0.062220287
0001f0 e3 f6 d7 3d 3d b1 d8 bd 75 41 28 3e 52 71 8d 3c
       0.10545137 -0.105806805 0.1643122 0.01726595
000200 90 5d 1e be c6 ec 09 bd ff ba 9e bd 15 46 a7 3e
       -0.15465379 -0.03367307 -0.077505104 0.32670656
000210 4a 6d ce 3e 60 c7 73 3e a2 c3 2d 3e 87 5f 03 bd
       0.40317756 0.23806524 0.16969159 -0.032073524
000220 e4 c8 ea bd ac 18 5d 3e 23 a5 a7 3d ee 26 f3 3d
       -0.11464098 0.21591443 0.08185794 0.118726596
000230 80 8a a4 bc 2b 82 79 bd f1 91 2f 3e d9 4a 4d 3e
       -0.020085573 -0.060915153 0.17145516 0.20048083
000240 ec 78 2a 3d c2 6b 94 3c a5 26 3e be 10 72 79 be
       0.041619226 0.01811779 -0.18569429 -0.24359918
000250 aa c4 50 bc a0 c2 cd bc 5b f6 c0 3b d8 df 97 3e
       -0.012742201 -0.025117218 0.005888743 0.29662967
000260 25 b2 33 be 91 75 a2 be 3c a8 73 3d 2c aa d0 be
       -0.17548425 -0.3173032 0.059486613 -0.4075483
000270 ea 33 81 3e 48 ff 73 3d 83 6a 9f be b1 78 5b 3d
       0.2523492 0.059569627 -0.3113595 0.053581897
000280 5e 34 a0 be eb 54 8d bd 87 78 b5 3e 4c b2 35 3e
       -0.31289953 -0.069009624 0.35443518 0.17743796
000290 97 11 00 3e d3 96 bd be f5 38 d5 bd cf 23 17 bc
       0.1250671 -0.37029132 -0.10411254 -0.009224846
0002a0 09 01 56 bd 68 29 82 3e e0 a4 bb bd b6 56 6b 3e
       -0.05224708 0.25422215 -0.09162307 0.22982296
0002b0 39 73 a6 3e 9c 73 0f 3e c9 94 a0 3e 04 e6 44 bc
       0.32509783 0.14008945 0.31363514 -0.012017731
0002c0 fd f9 dd bd c9 0d b3 be 38 9f a2 be cd b3 1d be
       -0.10838697 -0.34971455 -0.317621 -0.1540062
0002d0 55 85 48 bd e0 68 d8 3a 7d c7 8e be a5 3d f1 bd
       -0.04895528 0.0016510747 -0.27886572 -0.11779336
0002e0 2b 05 d8 3d 8f 0d ae 3d 52 29 ae 3e f6 65 44 3d
       0.10547861 0.0849868 0.340159 0.0479488
0002f0 3a ed 19 3e 7e 13 35 3d 8d 83 bb ba c5 17 a1 3e
       0.15031901 0.044208042 -0.0014306173 0.31463447
000300 af 88 d1 bc 8c bc 72 3e f2 94 bf ba 63 63 48 be
       -0.025577871 0.23704737 -0.0014616533 -0.19569163
000310 9a 8b 5c 3e 1a db 59 3e 73 2a 57 be 1d bb 90 bd
       0.21537629 0.21274987 -0.21012287 -0.07066939
000320 b0 b7 9e 3e 68 ac 26 be 85 57 83 be ed e1 34 be
       0.30999517 -0.16276705 -0.2565271 -0.17664309
000330 55 bf 3d 3e 00 c8 3c bd c6 2e ee be 57 53 52 be
       0.18530019 -0.046089172 -0.4652006 -0.20539604
000340 21 a1 d2 3d 10 c6 10 3b 6f bc 67 be b8 70 89 be
       0.10284639 0.002209071 -0.22630475 -0.2684381
000350 8f 74 5b be 0a 37 11 bd 96 ce 22 bd 47 b7 98 be
       -0.21431182 -0.03545288 -0.039747797 -0.2982733
000360 d0 47 83 be 7f e6 78 be e4 1b af 3c 06 39 91 3e
       -0.25640726 -0.24306677 0.021375604 0.28363818
000370 f7 a4 b4 be 79 9d b8 be ba 4f cf bd 8b be 4e bc
       -0.35282108 -0.36057642 -0.101226285 -0.012618671
000380 80 2a 99 3e 47 d6 a6 bd 8b 0c 8f 3d c2 a1 4b be
       0.29915237 -0.08146339 0.06984814 -0.19885924
000390 c1 2b 4c 3b 9e ae c4 bd 0c df b1 3c 82 df 27 3e
       0.003115401 -0.09603618 0.021712802 0.16393855
0003a0 4c 0a 74 3c bb ba b0 bd 82 6f a5 bd ed ee 54 bd
       0.014895033 -0.08629366 -0.08077909 -0.05198567
0003b0 3d 14 51 3e af d4 07 3c bc 9f 15 be 42 41 ab be
       0.20417877 0.008290454 -0.14611715 -0.33448225
0003c0 d0 47 6d be 54 11 3d 3e 56 6c d8 bc 01 be d1 bc
       -0.23171926 0.18463641 -0.026418846 -0.025603296
0003d0 5f d0 94 be 01 da dc bd df bd f9 3a 84 cf 18 3e
       -0.29065225 -0.107837684 0.0019053778 0.14922911
0003e0 d3 38 5a be 4a 59 11 3c 0b ad c8 3d 5c 44 16 bc
       -0.21310739 0.008871386 0.0979863 -0.009171572
0003f0 e2 04 a5 3e 18 06 ba 3e 28 ae 9f be 74 e6 6c be
       0.32230288 0.36332774 -0.31187558 -0.23134786

bias f4 [32]
000000 c7 16 a4 bd ba 42 2e bd 8c 92 84 bd b2 10 6b be
       -0.08012157 -0.042544104 -0.06473264 -0.22955588
000010 75 da 54 be 00 83 c7 bd 2f 7b ff bb f7 7f d2 3b
       -0.2078646 -0.09741783 -0.007796667 0.006423946
000020 c4 dd 76 3e 5c f9 47 3e a0 9f 38 be 2a be 08 bd
       0.24108034 0.19528717 -0.18029642 -0.03338448
000030 cf 77 2a bd 83 a4 b3 bd 4d 8a 95 bb 95 1e 68 be
       -0.041618165 -0.087716125 -0.004563606 -0.22667916
000040 87 e2 38 be da 73 93 bb 52 94 6d bc 91 bd 7c bd
       -0.18055163 -0.0044998946 -0.014500694 -0.061704222
000050 53 bf 14 be 70 2d e8 3d ae 1e ab bc 29 f3 8f bd
       -0.1452611 0.113367915 -0.020888653 -0.07028801
000060 e4 e6 d5 bc d4 67 81 be 11 24 f8 3d 0b 38 2f bd
       -0.026111074 -0.25274527 0.12116254 -0.042778056
000070 92 80 35 3e be 49 2e bd 22 74 77 be 56 26 aa 3e
       0.17724827 -0.042550795 -0.24165395 0.33232373

weight f4 [64, 32, 5, 5]
000000 4b 83 2e 3e 71 37 58 bd 01 8c d1 bd c8 8f 42 3d
       0.17042272 -0.052787248 -0.10231782 0.0475004
000010 a0 7f 02 3e 56 f7 d0 3d 37 27 17 bc 83 64 0b bd
       0.12743998 0.102034256 -0.009225658 -0.034031402
000020 51 d4 18 bd 36 1e d2 3c 67 7b 3c 3d 56 aa 75 bd
       -0.037311856 0.025649171 0.046016123 -0.059976898
000030 a3 98 35 bd 5a e4 18 bd 47 ed 53 3c 1e bf d0 bd
       -0.04433502 -0.037327148 0.012934989 -0.10192703
000040 b2 d6 9d bd ed 8b 13 3c 76 c6 8d 3d 3a 05 b2 3c
       -0.077069655 0.009005529 0.06922619 0.021731008
000050 da 7c 28 be 8b 8e 57 be 1e aa de bc b7 46 16 3e
       -0.16453877 -0.2105047 -0.027180728 0.14675413
000060 6e 4f 0f 3c 89 a3 0b 3e f6 0d 41 bd bb 3d 0a be
       0.008746965 0.13636602 -0.047132455 -0.13500111
000070 9d fd 0b bd 99 92 54 bd e0 9b 4a 3d f5 87 fb b8
       -0.03417741 -0.05189762 0.04946506 -0.00011993937
000080 ab 26 44 bd 62 d2 fb 3c b4 0f 7c 3d de b6 d9 bc
       -0.04788844 0.030739967 0.061538413 -0.026576456
000090 93 5d d1 3c 1d c6 df 3b 10 c3 18 3e 30 b4 37 3d
       0.025557315 0.006829037 0.1491816 0.044849575
0000a0 5f d5 82 bd b8 3a 8c bd 9d d5 55 3d f0 97 61 3d
       -0.063883536 -0.06847137 0.05220567 0.05507654
0000b0 db 07 1a ba e8 e4 00 be 4c 07 e2 bd 07 3a ac 3d
       -0.00058758043 -0.12587321 -0.11036548 0.08409505
0000c0 5f 98 a8 3d 17 7b 17 bb 6f 20 15 3e ae ed 16 be
       0.082321875 -0.0023114139 0.14563154 -0.14739105
0000d0 58 0a c9 bd e9 27 50 bd d2 33 87 bd c1 ec 10 3e
       -0.09816426 -0.05081931 -0.06601681 0.14152814
0000e0 a8 a1 7f bd 2b ce 91 b8 f2 2f ea ba 2b da a1 3c
       -0.062410027 -6.9525406e-05 -0.0017867072 0.01975735
0000f0 e0 33 d2 3c 35 be 5d 3c f9 dc 9c 3d 26 a3 c7 3d
       0.025659502 0.013534118 0.07659335 0.09747915
000100 cb 78 fe bb 63 9a 97 3d fe 7d 82 bd af b0 2f bc
       -0.0077658645 0.07402494 -0.06371687 -0.010723277
000110 45 7f 1e bd ee 85 c3 bd ce 1f 9d bd 39 cd 94 bd
       -0.038695592 -0.095470294 -0.07672082 -0.072657056
000120 43 71 76 3d 3c 40 5e 3d fd d9 73 bd c8 08 a0 3c
       0.06016661 0.054260477 -0.05953406 0.019535437
000130 2d db 4f bd d3 c0 bb bd 0d f2 a2 bd ab ae 4f 3c
       -0.05074613 -0.09167638 -0.07956324 0.012675921
000140 5e 49 1b bc 9a aa 9f bd 05 d2 13 bd 76 a8 d8 bb
       -0.009477941 -0.077962115 -0.036088962 -0.006611879
000150 6e cc ce 3d a3 30 33 3c fe 26 07 bd 85 a5 3a 3c
       0.100975856 0.010936889 -0.03299617 0.011392002
000160 8f 2d ea 3d 5c f7 eb 3d f6 d0 a7 bb 90 06 01 be
       0.11434471 0.115217894 -0.0051213456 -0.1260016
000170 90 2b 88 3d 9e 21 03 3e 48 56 db 3c 51 bb 73 bd
       0.06648934 0.12805793 0.02677454 -0.05950481
000180 bf aa 08 be bb 1f 59 bd 07 ef 0e 3e b5 85 a4 bb
       -0.13346384 -0.053008776 0.13958369 -0.005020822
000190 c1 7c e6 3d 63 6a 30 be 1c 1b e1 bd 2f ae 9b bd
       0.11254264 -0.17228083 -0.10991499 -0.07601582
0001a0 58 f3 c7 bd aa e7 1f 3c 18 f8 82 bd eb 82 a2 3b
       -0.09763211 0.009759823 -0.063949764 0.0049594543
0001b0 d6 38 99 3d 06 de 41 3d a5 13 4a 3d ac 02 a1 3d
       0.07481544 0.04733088 0.04933514 0.07861838
0001c0 8c 07 bd 3d e1 42 fe 3d b7 df cc 3c c9 a2 46 bd
       0.09229955 0.124151 0.02500902 -0.048495088
0001d0 f7 f4 a7 bd bc 65 ac 3c 52 41 a1 3c a0 b6 e2 bd
       -0.0820102 0.021044604 0.019684467 -0.11069989
0001e0 54 2e a4 bd 3b 9e 58 bd 29 3e 3c 3c 06 2e c9 bc
       -0.08016649 -0.052885275 0.0114894295 -0.024558078
0001f0 e4 38 8b bd 88 c3 24 3d 4f 43 7b be 1d b7 e6 bd
       -0.067979604 0.040225536 -0.24537395 -0.11265395
000200 9e 3a a1 3d 72 54 2f bd a5 81 74 3d b9 bf b4 bd
       0.078725085 -0.042805143 0.05969395 -0.08825631
000210 29 34 40 bd 40 66 69 3d 36 13 84 3d b8 8f 27 3c
       -0.046924744 0.05698228 0.06448977 0.010227136
000220 49 c0 84 bc 8c 12 5e 3d 61 07 c2 3d 65 b6 c9 3c
       -0.01620497 0.054216906 0.09474064 0.024623105
000230 1e 37 cd 3c 36 d3 d1 bc 55 29 3b 3d 25 73 5d bc
       0.025050696 -0.025613409 0.045693714 -0.013516222
000240 17 f3 0a be db 27 f9 bd ec de 59 bc 26 11 eb 3d
       -0.13569294 -0.12165805 -0.013297778 0.1147788
000250 af 49 ed bb 89 1c 10 be e0 8c 3f bd a4 35 23 bd
       -0.00724145 -0.14073385 -0.04676521 -0.039846078
000260 f0 b6 e8 bc f2 bf 57 3d da d8 e0 3b 2d 6f 43 3d
       -0.028407544 0.052673288 0.006861788 0.047713447
000270 48 19 8c bc 5a 6a 1e 3e 89 57 3c 3e 0c 00 d2 3c
       -0.017101899 0.15470257 0.18392767 0.025634788
000280 1f fb 8b bd 18 5c 72 bd d5 d5 90 3d 97 74 0d 3d
       -0.06835007 -0.05916986 0.07072035 0.034535017
000290 67 6e 5c be 59 1d df bd ed 61 a2 3c 22 ed fe 3d
       -0.2152649 -0.108942695 0.019822085 0.12447573
0002a0 12 50 15 bd 1f 50 5c be b9 cd de bd 32 eb 19 bd
       -0.036453314 -0.21514939 -0.10879082 -0.037577815
0002b0 3b 92 e0 3d 80 2f 78 bc 14 b4 c9 bd 5b da 01 3e
       0.10965391 -0.015148044 -0.098488 0.12680952
0002c0 ba 1b 86 3d 0a 36 16 bc 0f e4 a1 3c 83 df b5 3d
       0.06548257 -0.009168157 0.019762067 0.08880522
0002d0 5b 75 d4 3c 1d 37 0f 3b c4 38 f9 3c 86 70 27 3e
       0.025934866 0.0021852918 0.030422576 0.16351518
0002e0 a6 65 c0 3d 1e 3c f4 38 70 77 c8 bb 05 bb e1 b9
       0.09394388 0.00011646024 -0.0061177537 -0.00043054685
0002f0 38 0f 34 3d 07 ae 0f be 38 da 66 bd 51 ad 10 be
       0.043959826 -0.1403123 -0.056360453 -0.14128615
000300 0d ca ad bd 4e 87 64 3a cb 02 2a be 98 8d 9f bd
       -0.08485804 0.0008717672 -0.16602628 -0.07790679
000310 ff 50 2c be 1e ee 5a be 33 eb e0 3c 4f e2 f2 bc
       -0.16827773 -0.21379897 0.027455902 -0.029648928
000320 a2 dd c7 bd 06 b6 e2 3c f8 7a a6 3d 02 f2 67 bc
       -0.0975907 0.027674686 0.08128923 -0.01415682
000330 e6 7e bb bd ec 61 a9 bd f2 8b 78 bd 45 a4 f3 3d
       -0.09155063 -0.0827063 -0.060680337 0.11896566
000340 df c8 07 3d 43 71 84 be 33 5b 0b be 32 7f b7 bd
       0.03315055 -0.25867662 -0.13609008 -0.089598075
000350 57 c5 a6 bc 45 26 15 be 4d 2a 42 be 8e 3c ec bd
       -0.02035777 -0.1456538 -0.18961449 -0.115349874
000360 d6 76 ec 3d 63 e3 f9 3d 68 b0 d8 bd c1 72 41 bd
       0.11546104 0.12201574 -0.10580522 -0.04722858
000370 58 e2 b0 3d f3 7b ad 3d 3b 36 40 3c 2c a5 58 be
       0.08636922 0.08470907 0.01173168 -0.21156758
000380 aa e2 28 bd 78 1a 3c 3c e6 71 41 bc 19 53 fa 3b
       -0.04123179 0.01148092 -0.011806941 0.0076393005
000390 a8 41 b7 3d 85 99 56 3e ee 55 b5 bd 36 57 bc bd
       0.0894807 0.20957 -0.088542804 -0.09196322
0003a0 fa e4 8a bd 18 08 02 bd 2d d9 33 3a b2 0e 1b be
       -0.06781955 -0.031746 0.000686067 -0.15142325
0003b0 9c ef 38 be e8 e0 7e bd 0c 6b 96 3d b6 9b 43 3b
       -0.18060154 -0.062226206 0.07344636 0.002984745
0003c0 47 54 9f bc 14 d0 86 3c ba 93 c5 bb 58 7e 87 3d
       -0.019449366 0.016456641 -0.0060295733 0.06615895
0003d0 58 92 81 bb f7 e3 47 3d 7f 6c c9 bd 51 c4 6d bc
       -0.003954213 0.04880139 -0.09835147 -0.0145121375
0003e0 f4 c3 dc 3d 03 44 11 bc ea cc 1c be 42 d6 1c be
       0.107795626 -0.008866313 -0.15312544 -0.15316108
0003f0 6a 29 5a 3c f8 b9 e8 3d f7 2f 03 be 38 c0 32 bc
       0.013315538 0.11363596 -0.12811266 -0.010910086

bias f4 [64]
000000 6d 73 ef bc a1 42 d3 3b 61 7a ab bd 4e 0f 9a bc
       -0.029229844 0.006447152 -0.08372951 -0.018806126
000010 74 c5 b7 bc 45 b0 fb bc e9 e8 89 bc 75 e3 99 bc
       -0.02243302 -0.0307237 -0.016834693 -0.018785218
000020 20 ec 08 bd 85 f1 6a 3c 3d c2 33 bd e1 14 02 bd
       -0.03342831 0.014339809 -0.043886412 -0.031758193
000030 1f 0b 95 ba d7 f5 54 3d 57 da a8 bd e9 4e 3a bd
       -0.0011371112 0.051992264 -0.0824477 -0.04548541
000040 5e 5d f7 3c d2 ce 9f bc c0 6d 9f bd 18 05 44 bc
       0.030195888 -0.0195078 -0.07784605 -0.011964105
000050 7e 9b de bc 9f 33 0c bd 15 99 e1 39 f1 a0 af 3c
       -0.027173754 -0.034228917 0.000430294 0.021439048
000060 47 3a 92 3c 91 d6 ec bb 70 88 a1 bd a0 a9 ac 3d
       0.017850054 -0.0072277267 -0.078873515 0.08430791
000070 6d c1 89 bb 3a cf de bb c8 fa 24 bd e2 14 c9 3d
       -0.0042039664 -0.0067996057 -0.040278226 0.09818436
000080 c0 6f 2c bd 84 55 e0 3c e1 7d ae 3c 8f 6a 41 3c
       -0.04209876 0.027384527 0.021300258 0.011805191
000090 78 02 78 bc 1b c2 24 bc 7c 82 40 3c c7 f0 a0 3d
       -0.015137307 -0.010056044 0.01174986 0.07858425
0000a0 b3 ac 05 3c 7d ed c6 3b 2f a5 d7 3c 47 60 a5 bd
       0.0081588505 0.0060707913 0.026323883 -0.08075004
0000b0 ce a7 75 bb 17 6a b0 3b a8 54 eb bc be af e3 3c
       -0.0037484053 0.0053837406 -0.02872689 0.027793761
0000c0 22 7b 9b bc 5c 82 69 bd b5 36 cf bc 80 31 e6 3c
       -0.018979613 -0.057009086 -0.025294641 0.028099775
0000d0 02 01 4a 3d 35 c5 0d bb d2 cb 44 3b 70 6a 20 3e
       0.049317367 -0.0021632437 0.0030028713 0.15665603
0000e0 4f f6 ac bc d1 cc ad bb db be 2b 3d e0 b5 be bc
       -0.021113543 -0.005303957 0.04193006 -0.023280084
0000f0 69 4d 1d 3d d8 62 56 bd 81 38 32 bc 25 71 25 bc
       0.038403902 -0.05234036 -0.010877729 -0.010097777

weight f4 [128, 64, 3, 3]
000000 de b5 66 bd 37 69 85 bd 4e 8f 5b 3b c7 14 29 3d
       -0.056325786 -0.06514209 0.0033502164 0.04127958
000010 bb 1f 8d 3d 84 d5 bf bc 8c 58 14 bc 52 2f 57 bd
       0.06890818 -0.023417242 -0.009054314 -0.052535363
000020 1a 44 99 3d ed f0 db bc 38 c1 58 bc 72 64 09 bb
       0.074836925 -0.02684828 -0.013229661 -0.002096441
000030 9a c2 46 bd 58 c5 85 bc 34 2c d8 bc 9e 8e 98 bc
       -0.04852543 -0.016329452 -0.026388265 -0.018622693
000040 0f bd 80 3c 72 26 97 bb 6a 1c 0f bd 0a 36 04 bc
       0.01571515 -0.0046127373 -0.034939207 -0.008069525
000050 f1 cd be 3c 35 ef 25 bd 7a a2 f5 bc f7 8b 2b bd
       0.02329156 -0.04051133 -0.029984701 -0.041881528
000060 34 ba 59 be 48 a2 2f 3d a8 e4 0e 3d f4 dc 10 bc
       -0.21262437 0.042879373 0.034886032 -0.008841742
000070 c2 a0 1e bd f8 a2 5e bb e3 85 d0 bc 62 4c 8e 3b
       -0.03872753 -0.0033971649 -0.025454467 0.0043426016
000080 d2 b3 a3 bc de 0a 2e bd 7e 7c bb 3b e4 64 54 3c
       -0.019983206 -0.042490833 0.0057216277 0.012963507
000090 41 bc f8 bd 74 b0 2c ba f6 34 20 3d 4b 95 86 bd
       -0.121452816 -0.0006587573 0.039113007 -0.06571444
0000a0 9a 64 20 bd 75 77 ce bd 70 ba 8b be dc 52 17 3c
       -0.03915844 -0.10081378 -0.27290678 0.009236064
0000b0 67 1e 96 3c 67 8f 42 3c 0b 09 79 bc 67 41 d9 3c
       0.018325044 0.01187501 -0.01519991 0.026520444
0000c0 ef 69 43 bd ae f6 23 3d 90 1d 9e 3d 69 57 95 bd
       -0.047708448 0.040030174 0.07720482 -0.07292063
0000d0 fe b3 dc 3c cb a7 57 3d bd 98 af bd c7 9c 8b bd
       0.026941296 0.052650254 -0.085740544 -0.06817012
0000e0 3e 04 e1 bc 26 b7 17 bd 18 d7 3e bd 06 0d bb 3b
       -0.027467843 -0.0370399 -0.046591848 0.0057083396
0000f0 92 bc e4 3c 4b 61 3c 3d 60 ea 0a 3c ee 8a 8e 3c
       0.027921949 0.045991223 0.008478731 0.017400231
000100 10 8d 03 bc 85 6c c3 3d 93 a6 c6 3c e3 89 3a 3d
       -0.008029237 0.09542183 0.02424935 0.045541655
000110 54 c2 42 3d db d3 b0 3d 7c 87 25 3d ee 32 1c bd
       0.047548607 0.08634158 0.04041241 -0.038134508
000120 c0 3e 65 3c b5 35 d0 bc 9f 85 b4 bc 23 b8 42 3d
       0.013992012 -0.025416235 -0.022036372 0.047538888
000130 37 8e 83 3b 08 8e 2a bd a0 f4 2a bd cf 26 ad 3c
       0.004014756 -0.041639358 -0.0417372 0.02113667
000140 46 f7 52 3b 29 e4 b4 bd e5 2e a4 bd ca cd 86 3d
       0.0032190843 -0.088325806 -0.08016757 0.0658222
000150 17 7e 33 3b 7d cc 67 3c 4f c7 9a 3b 07 05 c7 3d
       0.0027388388 0.014147875 0.0047234665 0.09717756
000160 02 b2 72 3d b1 37 52 3d 39 98 54 bd 3b b8 83 3c
       0.059251793 0.051322643 -0.051902983 0.016079059
000170 33 ef ec bc 42 5e 26 bb 47 cc e0 bc 2c c9 ac bc
       -0.028922653 -0.0025385772 -0.027441157 -0.02109202
000180 c6 fd f4 3c 72 32 2b bd 93 9d 92 bb 17 e1 34 3d
       0.029906165 -0.041796155 -0.0044743507 0.044159975
000190 8c 4d 64 3d 24 c7 06 bd 89 65 a4 bd f5 d4 2f bd
       0.055738017 -0.03290476 -0.08027179 -0.0429277
0001a0 be 60 82 3d 65 50 10 be 8f 99 60 bd ef d2 d8 3c
       0.06366108 -0.14093168 -0.054833945 0.026467768
0001b0 27 a3 68 3d 8d 12 e7 bc a3 cf 39 3c 05 1b b5 bd
       0.05679622 -0.028207088 0.011341008 -0.08843044
0001c0 c1 b8 43 bd b7 16 87 3d e4 9f 11 be bd 0f be 3b
       -0.047783617 0.065961294 -0.1422115 0.005800216
0001d0 28 27 ad 3b e8 30 9b bd 92 4e d7 3c b1 3d 1b be
       0.005284209 -0.075776875 0.026282582 -0.15160252
0001e0 e3 62 6e bd f2 6e 24 be 1a d2 2e 3d 9d bd 4a bd
       -0.058199774 -0.16057947 0.042680837 -0.049497236
0001f0 62 ec 38 3e 35 22 2e 3e b4 17 6f 3d 40 4c cb 3b
       0.18058923 0.17005236 0.058372214 0.006204158
000200 3d 6b 26 bd 51 27 ac bd cc 38 1e bd 98 39 4b 3d
       -0.040629614 -0.084059365 -0.038628384 0.049615473
000210 d8 39 09 bd 42 05 8c 3c b7 db 4f bb 34 e9 27 bd
       -0.03350243 0.01709235 -0.0031716654 -0.040993884
000220 d0 12 2f bb 64 22 b6 bc a9 8d 03 bc 3f 8a 00 bd
       -0.0026714094 -0.022233196 -0.00802938 -0.03138184
000230 98 99 4e 3d 1c f6 b5 bd e0 48 df bd 98 41 7b 3d
       0.050439447 -0.08884832 -0.10902572 0.061341852
000240 3d 78 95 bd e9 01 07 3d db 06 85 3d ef b7 77 3d
       -0.07298324 0.032960806 0.06495448 0.060478147
000250 37 1e a1 3c c0 24 17 bd fa 6f dc 3d 86 87 e5 bc
       0.019667728 -0.036900282 0.10763545 -0.028018724
000260 56 7b 12 bd b9 b0 84 bc 95 e2 89 bc de 64 ba 3c
       -0.035762154 -0.01619755 -0.016831676 0.022753175
000270 42 a0 86 bd 94 95 bf bd 13 63 ab 3b b4 12 d5 bd
       -0.065735355 -0.09354702 0.0052303164 -0.10403958
000280 54 b6 1e be 1a 46 36 3d 2c 34 70 bd 2a 4b 01 3d
       -0.1549924 0.044500448 -0.058643505 0.031565823
000290 23 68 e1 bb 0d 7d a0 3c 21 27 dd bc 12 c1 f4 3d
       -0.006878869 0.019590879 -0.026996197 0.11950888
0002a0 ec 6a cb bd 85 85 2c 3c 42 12 c2 bb 91 3d c8 3c
       -0.09932503 0.01052988 -0.0059225867 0.02444342
0002b0 0e 36 25 bd 26 f5 c7 3c 8d 8a 95 bc 1f 02 f6 3c
       -0.040334754 0.024408888 -0.018254543 0.030030308
0002c0 82 6e 98 bc 3f b1 00 3d f6 76 b6 3c 66 0a f6 3c
       -0.018607382 0.031419035 0.022273522 0.030034255
0002d0 75 6b 44 3d eb 64 f2 3c 25 aa 8b ba e4 13 1b 3d
       0.04795404 0.029589137 -0.0010655565 0.037860766
0002e0 21 97 34 3d ff 91 9d bb 03 3d ff bb f1 7d 9e bc
       0.04408944 -0.004808664 -0.0077892556 -0.019347163
0002f0 64 8e d3 3c c3 7f 7a bd 0e ef 4c bc 6a b7 8a bc
       0.025824733 -0.061157 -0.012508167 -0.016933162
000300 a0 c8 a9 bd b8 b1 b3 3c e0 39 16 3b 5a 6d 99 bd
       -0.08290219 0.021935329 0.002292268 -0.0749156
000310 dd c5 2f 3d 39 5a 9b 3d cc 67 c8 bd 57 ee ff 3b
       0.042913307 0.07585568 -0.09785423 0.0078103947
000320 97 bc 8f 3d 03 dc d8 bd b5 84 97 3d 37 89 da bc
       0.070183925 -0.10588839 0.07398359 -0.026676757
000330 24 73 26 be 00 cc a5 bd 00 b1 e8 bd aa 41 ef 3c
       -0.1625486 -0.080955505 -0.11361885 0.029206116
000340 b0 39 65 3d ce 2b d0 3d 0a ed 03 3e ce b7 e2 3c
       0.05596322 0.10164605 0.12883392 0.027675536
000350 c6 f8 b0 bd 26 8b 4e 3d b6 0e 0c bd e5 88 e1 3d
       -0.086412 0.05042567 -0.034193717 0.11012439
000360 de 9a bf 3c 4b d8 4f bd 4c af 41 bd 27 e8 db bc
       0.023389276 -0.050743382 -0.047286317 -0.026844097
000370 73 eb 04 bd 70 eb 3d 3d 58 ec 38 bd 39 aa 17 bd
       -0.032451104 0.04636711 -0.04514727 -0.03702757
000380 c4 83 4c bc dc 6b cf bd e6 f2 15 3d d2 8f b1 bd
       -0.012482587 -0.101279944 0.0366086 -0.0867001
000390 9f 6f 34 be 4d 7a 9d bd c2 f9 01 bc 03 33 5f be
       -0.17620705 -0.07689343 -0.007933082 -0.21796803
0003a0 a3 3d e1 bd 41 7a ac bc 9e 05 6c 3d 6c 9d 0e 3d
       -0.109980844 -0.021054389 0.057622544 0.034818098
0003b0 69 9e 98 3d 05 df cf bc 3a 6f 8b 3d e6 32 aa 3d
       0.07452089 -0.025374899 0.06808324 0.08310489
0003c0 03 83 ee 3c 82 2b 9f 3b e1 88 43 3d 18 05 88 3c
       0.029115206 0.0048574815 0.04773796 0.016603991
0003d0 a1 68 7e 3e 79 b9 14 3d 9d 12 86 3d 70 81 74 3d
       0.248446 0.036309693 0.06546519 0.059693754
0003e0 d3 c4 2b 3e ef 9e c2 bd 67 c3 5f bd f0 d5 4b 3e
       0.16774301 -0.095029704 -0.05462971 0.1990583
0003f0 d4 33 c0 3b 16 d7 52 bc 18 a1 2a bd 6f 17 29 bd
       0.0058655534 -0.012868663 -0.041657537 -0.041282114

bias f4 [128]
000000 9e 46 3a bd eb 68 94 bd 8d e7 cf bc d4 ab 47 bd
       -0.045477502 -0.07246574 -0.025378967 -0.048747852
000010 54 83 47 bd 70 96 22 bc 6c 59 62 bb 49 67 28 bd
       -0.04870923 -0.009923562 -0.0034538163 -0.041114125
000020 2c fc 73 bd fa 7a 57 3c 98 31 c1 bb d8 a0 a9 3c
       -0.05956666 0.0131518785 -0.0058958046 0.02070658
000030 f4 98 fb 3c 27 c7 83 bb 09 42 7a 3c d2 0c b6 3c
       0.030712582 -0.0040215435 0.015274533 0.02222291
000040 83 51 59 3c cb 6b 49 bd 43 8e 0a bd 54 f6 4b bd
       0.013264063 -0.049175065 -0.033827078 -0.049795464
000050 6b f8 21 bd 97 0b 16 bb 99 92 2c 3c cb 69 65 bd
       -0.03954355 -0.0022895092 0.0105329985 -0.056009095
000060 ae 4f f5 bc 9a 11 ca 3a 7b 84 a7 bc 6d 36 cf bc
       -0.02994522 0.0015416623 -0.020448914 -0.025294507
000070 fb f7 4c 3d 03 aa 78 bd 51 10 ee bc c7 f7 f5 bc
       0.05004118 -0.06070901 -0.029060515 -0.030025376
000080 7b 42 2d bd 05 34 a4 bc 59 35 83 3b b4 c9 3c bd
       -0.04229973 -0.020044336 0.0040041623 -0.046090797
000090 d6 6d 12 bd 57 da 79 bd 80 04 95 3d 4d 85 55 3d
       -0.03574928 -0.06099924 0.07276249 0.05212908
0000a0 5b 99 3d bd c6 d8 a4 b8 b8 5f 84 3b 81 47 b9 3c
       -0.04628883 -7.8605066e-05 0.004039731 0.022617104
0000b0 8d e7 18 bc c9 ef 65 bd 3e 14 fe bc 6e 1e 91 3b
       -0.00933255 -0.05613688 -0.031015512 0.0044286763
0000c0 57 3e 4b b9 d2 b3 cd 3c 32 d4 a2 3c 85 a6 b6 bc
       -0.00019382812 0.02511016 0.019876573 -0.0222962
0000d0 f8 18 30 3d 88 f5 c1 3d 2f ec 40 bd df 8c 53 bb
       0.042992562 0.094706595 -0.047100242 -0.003228001
0000e0 cf 54 63 bd e7 2f f4 3c 09 28 e6 bc 71 9c 1c bd
       -0.0555008 0.029807998 -0.028095262 -0.03823513
0000f0 70 5e 3f 3d 82 23 02 3d 88 9a 69 bd 95 3a 58 bc
       0.046720922 0.031772144 -0.057032138 -0.013197561
000100 e6 36 80 bc c1 f0 3a bc 47 ac 53 bc 50 a4 94 bd
       -0.015651178 -0.011409939 -0.012919492 -0.072579026
000110 fe 2b c5 bd f6 1a 45 3c 88 a3 02 bd e2 86 05 bd
       -0.096275315 0.012030354 -0.031894237 -0.032599337
000120 a7 05 27 bd 60 8c 5c 3b d4 9d ae bd 1d a5 05 bd
       -0.040776875 0.0033653006 -0.08526197 -0.032628167
000130 97 4b 98 bc c9 85 41 bd 8c 38 1f 3d 61 f7 33 bd
       -0.018590732 -0.047246728 0.038872287 -0.04393709
000140 ef 94 35 bd 32 d1 95 3b 75 80 86 3b 32 6d 06 3d
       -0.044331487 0.004572057 0.0041046687 0.03281898
000150 01 ae 43 bc 61 4c e5 3b 91 66 b4 3b e5 d7 6a bb
       -0.011943341 0.0069976305 0.005505391 -0.003583425
000160 d3 df 8f 3d 53 f9 cb bc 17 77 ac 3c df 49 9a 3d
       0.07025113 -0.02489916 0.02105288 0.07533621
000170 a7 b0 34 bd 91 53 72 bd 19 55 37 3d 68 d4 30 bd
       -0.04411378 -0.059161726 0.04475889 -0.043171316
000180 1d 88 3a 3d 56 62 90 bd b4 46 5b 3c 7d 01 d5 bc
       0.045539964 -0.07050006 0.013383556 -0.026001686
000190 78 47 98 bd 91 34 b0 bd 0d 69 4a bd 2c 86 2e 3b
       -0.074355066 -0.08603776 -0.04941659 0.0026630266
0001a0 0d 78 a7 3a 7f e8 93 bd 97 63 35 bc fa 06 c3 bc
       0.0012776867 -0.072220795 -0.011071107 -0.023807038
0001b0 4d 87 86 3d 06 8e 7f bd 75 e5 f0 bc 4c 85 92 bb
       0.06568775 -0.062391303 -0.029406289 -0.0044714566
0001c0 23 b5 e4 bc 42 68 61 3d 40 cc 5e bd 67 7e 65 3d
       -0.027918404 0.05503107 -0.054394007 0.05602875
0001d0 e1 40 5f bc 07 04 b1 bc d0 90 51 bd 1a 58 05 3c
       -0.013626308 -0.021608366 -0.051163495 0.008138681
0001e0 16 d1 7b bd c8 95 10 3c eb 60 1a bd 3a 2c a1 3c
       -0.061478697 0.008824773 -0.037690084 0.01967441
0001f0 ee 7d b9 bd ee 42 0e bd 79 ab e1 3a 49 86 84 3c
       -0.09057222 -0.034731798 0.001721724 0.016177313

weight f4 [128, 512]
000000 cd eb a3 bc 17 30 5e bd d6 13 d3 bc 3d d9 6f 3d
       -0.0200099 -0.05424508 -0.025766294 0.058556784
000010 14 65 40 bd d4 ea be bc 2b 6c e3 bb 48 53 e3 3b
       -0.046971396 -0.023305334 -0.006940385 0.006937418
000020 d3 8d 02 bd e3 7e 49 3d 63 73 b7 3c 83 d1 7d bd
       -0.031873535 0.049193274 0.022393888 -0.061967384
000030 ef 1a 03 3d 37 be 3f 3c 9f f6 8b bb a3 e9 62 3d
       0.032008108 0.011703066 -0.004271343 0.055398595
000040 ab da 09 ba 3c 86 c5 bc fd b5 84 3d da c8 2d 3d
       -0.00052587193 -0.02411186 0.06480024 0.042427875
000050 09 fe 55 3c 91 a9 1e 3d c8 12 b1 3d 72 9d 3e 3b
       0.013061055 0.03873593 0.0864616 0.0029085544
000060 ae a4 3a 3d 04 a0 19 bd 58 02 f2 3c b8 09 3e bd
       0.045567207 -0.03750612 0.029542133 -0.046395987
000070 15 42 0d 3d ee 0a 9d bd 9a fc 81 3d b9 e8 26 3e
       0.03448685 -0.076681 0.06347008 0.16299714
000080 fa f7 5d bd 7e 6e e1 3c db b4 e5 3d 62 8d b5 bb
       -0.054191567 0.027518507 0.11216136 -0.005540536
000090 c8 f1 30 3d 2a 08 83 bc 66 fd aa bc 2a e7 56 3c
       0.04319933 -0.015995104 -0.020872783 0.013116637
0000a0 da 2d 43 bb 3d d6 0f 3e 25 9b 17 bc 5c c4 10 3e
       -0.0029781968 0.14046569 -0.009253298 0.14137405
0000b0 65 64 84 bd 79 d4 36 3c dd ea 2b 3d 76 f3 75 3c
       -0.06464461 0.011159056 0.04197203 0.015011659
0000c0 33 2f ec bb 78 68 7a bc 03 36 41 3d dc b7 33 bd
       -0.007207775 -0.015283696 0.04717065 -0.043876514
0000d0 4c a5 24 3d 48 41 f1 ba a2 14 94 3c a5 52 9c bb
       0.040196702 -0.0018406296 0.018076245 -0.004770594
0000e0 e1 37 3a 3d b8 b5 80 3c f0 a2 8f bc c2 f8 5a 3c
       0.045463447 0.01571165 -0.01753375 0.013364973
0000f0 4e 21 00 bd e9 82 24 3d 24 50 4b 3d 26 0b f2 ba
       -0.03128176 0.04016391 0.049636975 -0.0018466457
000100 ba 46 41 3d 7e ea 04 bc 69 be c1 bd 62 1e f0 bc
       0.04718659 -0.008112548 -0.09460146 -0.029311363
000110 1d 2f 6b 3e ed c4 2f 3d f2 76 01 3c d7 f0 a6 bd
       0.22967191 0.042912412 0.007901894 -0.08151405
000120 01 74 18 bc a1 04 63 bd fe 3f 68 3d 1d b5 65 bd
       -0.009305001 -0.055424336 0.056701653 -0.056080926
000130 bb 3b 78 3c c8 1b ca 3d 97 ba 5e bc e6 c3 b4 3c
       0.01515096 0.0986858 -0.013594291 0.022066068
000140 d9 da 0c bd 84 2f 1d 3d ae af 2b 3d 53 e5 57 3d
       -0.034388397 0.038375393 0.041915588 0.052708935
000150 5e 33 bc 3d 03 98 43 3d 3d bd 64 bd 95 50 39 be
       0.09189485 0.04775239 -0.055844534 -0.18097146
000160 d9 10 83 bd 1c b8 42 3d 86 93 33 3e 08 1c 35 3c
       -0.06399698 0.04753886 0.17536744 0.011054046
000170 54 42 8b 3d f1 1f 17 3e 28 9f 9f 3d 08 fa 30 3d
       0.067997605 0.14758278 0.077940285 0.0432072
000180 90 1c 2b 3d b4 b2 b5 3b ff ea 7d 3d c2 eb d7 bc
       0.041775286 0.0055449847 0.061991688 -0.026357535
000190 66 71 ac 3c b9 1a f3 3d dd e3 15 3d b6 2c fe ba
       0.021050166 0.11870331 0.03659426 -0.0019391987
0001a0 07 96 0e bd 1b 91 dc 3c b4 20 20 3d 3b 8f 19 3d
       -0.034811046 0.02692466 0.039093688 0.03749011
0001b0 3c 4f 63 3d b0 f6 06 bc d9 8b c9 3d 71 0a 56 3c
       0.055495486 -0.008237526 0.09841127 0.013064013
0001c0 e2 6b 07 3e b9 f2 20 bd 98 f6 cd bd ed da 49 bd
       0.13224748 -0.03929398 -0.100568 -0.04928105
0001d0 eb dd 09 bc 17 d8 9a 3d 27 67 04 3d 4b 54 51 bc
       -0.008414726 0.07560747 0.032324936 -0.012776445
0001e0 70 c5 3e 3d f2 71 ef 3c 13 37 4d 3c bc 52 b9 3c
       0.04657501 0.029229138 0.012525338 0.022622459
0001f0 42 8d 8f 3c f6 0f 50 3d 0d c7 43 3d 55 9d 2d 3e
       0.017523412 0.05079647 0.04779725 0.16954549
000200 cb 5e 72 3c 63 02 dc bc 86 20 cc 3b 3b f5 7f 3d
       0.014793108 -0.026856607 0.006229463 0.06248973
000210 f7 0a 84 bc 1a ee d0 bb 86 c1 2b 3b 84 5c aa 3c
       -0.01611851 -0.00637604 0.0026207878 0.020796068
000220 ce 78 9a bd ef 9e 9f bd b5 be a2 3d 7d 3c 3a bd
       -0.07542573 -0.07793986 0.07946531 -0.045467842
000230 6a 69 ab bd 55 43 0e 3d 3f 5b 13 bd 93 c0 65 bc
       -0.083697155 0.03473218 -0.03597569 -0.014022964
000240 44 68 51 ba a2 f8 24 bc 5f 79 be bb 70 60 d9 bc
       -0.0007988254 -0.010069044 -0.0058128084 -0.026535243
000250 36 10 07 3c 4e e8 3a bd a2 76 d7 3c df 91 81 bd
       0.008243611 -0.0456317 0.026301686 -0.06326651
000260 1b 8e 45 bd f7 3d 14 3d 97 c2 c4 3d 65 f7 b7 3d
       -0.048231225 0.036191907 0.096074276 0.08982734
000270 ce 32 63 3d 05 2c 0d 3d dc 12 b7 3d 34 35 24 3e
       0.055468373 0.03446581 0.08939144 0.1603592
000280 bd f2 4f bd bd e7 3e bd 3f 4a 46 3c f5 51 81 3d
       -0.050768603 -0.04660772 0.012102663 0.0631446
000290 61 c7 3d 3c 77 c8 7d 3d 30 b7 ec 3d 24 37 91 3d
       0.01158318 0.061958756 0.11558378 0.07090595
0002a0 81 43 38 3a d9 41 87 3d 04 f2 39 3d 11 ad 79 3d
       0.0007029102 0.06604356 0.04539682 0.060956065
0002b0 bf a0 7a bd ca db 12 3d 44 f3 e4 bd 89 7e 45 3d
       -0.061188456 0.03585414 -0.11179212 0.048216376
0002c0 03 1f 67 3d 33 40 40 3d 15 ac 04 3d 61 fb 06 b9
       0.05642606 0.046936225 0.032390673 -0.00012872882
0002d0 62 18 5b bd bf 2d 9c 3d 31 39 a5 3c 70 45 85 3d
       -0.05349005 0.07625913 0.020168873 0.06507385
0002e0 ad 97 2e bd 23 98 a3 bd 8d 81 45 3d 22 06 c3 bd
       -0.042625118 -0.07988002 0.048219252 -0.09522654
0002f0 c1 ab 8c 3c f4 37 45 bd 1d 8b 45 bc af 1a 8e bd
       0.017171742 -0.048149064 -0.012057093 -0.06938683
000300 d6 87 ca bc 0e f3 82 3d d8 3c 3a 3d b5 0d d2 bc
       -0.024722975 0.06394015 0.04546818 -0.025641302
000310 e9 71 8c 3d a9 69 c5 3d ac c4 fc 3d 0c 75 5e 3e
       0.06857664 0.09639294 0.123422 0.21724337
000320 ab ee 73 3d b7 15 80 3d 6b 0d c5 bc 41 2d 6b bd
       0.059553783 0.06254142 -0.02405425 -0.057416204
000330 44 a2 50 bc e9 a5 77 3d 1e 1b 21 3c dc ec 34 3e
       -0.012734 0.06046096 0.009833125 0.1766848
000340 b1 a3 2f bb 3a 3e 00 3d 2d 54 83 3c 9a 55 f4 bc
       -0.0026800449 0.031309344 0.01603135 -0.029825974
000350 fd 0f f4 3b 81 c8 d5 3d ca 30 97 ba 32 bc 1a be
       0.007448195 0.10438634 -0.0011534926 -0.15110853
000360 30 70 31 3c f2 48 ea bc 03 49 ba 3c ad 9b 34 3c
       0.01082997 -0.028599236 0.022739893 0.011023444
000370 41 1d 3e 3d 24 4d 9f bc 7f c8 a1 3c 6b 7d 29 3d
       0.046414617 -0.019445963 0.019748924 0.041379374
000380 ed bd 19 bd a2 c3 5a bd aa f2 1d 3d cf ff 99 bd
       -0.037534643 -0.053409226 0.0385615 -0.07519495
000390 d1 28 92 bb 1e 9e a0 3b 3f 1c 5a 3c 6d 98 80 bd
       -0.004460432 0.0049016615 0.013312398 -0.06279073
0003a0 02 95 57 bb 0c e9 47 3d 8f f1 94 3d 32 db 31 bc
       -0.0032895212 0.048806235 0.07272636 -0.010855483
0003b0 3f f1 35 bc 46 89 85 bc 87 f4 03 3d 51 fc 3f bd
       -0.011104881 -0.016300809 0.03221562 -0.046871487
0003c0 4c 46 45 bd c2 ea b7 bc 0f d2 65 3d ff 41 2a 3d
       -0.048162743 -0.022450808 0.05610853 0.041566845
0003d0 ee 53 04 bb ac 98 44 3d 4a 04 f2 3d b3 ee 8e 3d
       -0.0020191628 0.04799716 0.11817224 0.06979122
0003e0 08 95 3f 3d 63 16 a4 3c d5 dc 4f bd af 42 5b 3d
       0.046772987 0.020030206 -0.05074771 0.05353039
0003f0 35 d1 cf 3d 4f 7e af 3d 97 72 6c 3c d7 82 b1 bd
       0.10147325 0.08569013 0.014431617 -0.08667534

bias f4 [128]
000000 2f 04 01 3d 7e 8a e2 3c 88 63 22 3c 80 fb 46 bd
       0.03149813 0.027653929 0.009911425 -0.048579693
000010 1a 9c 9d 3d b1 2f f2 3b 9a b4 92 bc 40 b2 72 bd
       0.0769579 0.007390939 -0.017908383 -0.059252024
000020 0a 46 47 bd 65 f3 b3 3c 66 ac 26 bd 48 5d b1 3c
       -0.04865078 0.021966645 -0.040691756 0.021650925
000030 89 7d 21 bb 67 9b 02 3d 05 a8 9f bc a2 34 ea 3b
       -0.0024641475 0.031886484 -0.019489298 0.0071473876
000040 82 d8 fc b9 b7 e8 bc 3c ef 29 1d bd 1c 4a 1f bb
       -0.00048226496 0.023060186 -0.03837007 -0.0024305647
000050 67 30 60 bd 9e 86 a2 3c 17 ee a0 bd 4e 43 5a bd
       -0.05473366 0.019839581 -0.07857912 -0.053286843
000060 ff 7a c0 bc 37 55 24 bd 3f b9 41 bd 81 66 ad bc
       -0.02349615 -0.04012033 -0.047295805 -0.021167042
000070 af 4d 02 3d a5 07 64 3c 56 3d 7b 3c 49 de 3e 3d
       0.031812366 0.013917838 0.015334448 0.046598706
000080 72 0e d3 3c cb 95 6a 3c 14 45 17 bd c6 74 ca bc
       0.025763724 0.01431794 -0.036931112 -0.024713885
000090 82 c9 23 bd 11 29 02 bc bf 2c 45 bd 10 11 54 bd
       -0.039987095 -0.007944361 -0.048138376 -0.051774085
0000a0 ae 70 03 3d 25 a7 57 bd ec 11 09 bc 91 b0 81 bc
       0.03208988 -0.052649636 -0.008366089 -0.015831264
0000b0 7a d0 12 bd aa 7a dc 3c 34 fc 70 bc d7 11 9e 3d
       -0.03584335 0.02691396 -0.014708567 0.077182464
0000c0 39 65 9e 3b 03 a9 88 bb 04 40 72 bc 82 2e 0b bd
       0.004833844 -0.0041705384 -0.01478577 -0.0339799
0000d0 d9 95 77 bd 91 80 4f bd ca 2f 67 3c 2e c7 5b bd
       -0.06044564 -0.05065972 0.014110515 -0.05365675
0000e0 cc e8 ec bc 78 8d 4a bd 48 b7 22 3d 42 31 eb bc
       -0.0289196 -0.04945132 0.039725572 -0.028710011
0000f0 46 fe e4 3c 91 f3 84 bb 4e a0 b6 bc 32 43 63 bd
       0.027953278 -0.0040573557 -0.022293236 -0.055484004
000100 28 55 f8 bb 53 d1 db bc f2 f7 80 bc eb 21 35 3d
       -0.007578511 -0.026833212 -0.01574323 0.0442218
000110 d0 3d 40 bd 28 2c 13 bd 9b 59 ed 3b a7 2f 85 3b
       -0.04693395 -0.035930783 0.007243348 0.0040645185
000120 72 af 59 bb 7e 1d 18 3c ce 3b 06 bd 91 6e 53 3d
       -0.0033216146 0.009284375 -0.032771878 0.051619116
000130 41 88 9e 3c 5b 6c 8c bd c3 3a 0d bc dd 8f c0 bc
       0.01935208 -0.06856605 -0.008619967 -0.0235061
000140 d5 91 0e 3d c6 45 38 bd 1e 1f 06 bb 37 f6 32 bd
       0.034807045 -0.044988416 -0.0020465325 -0.04369184
000150 1a b8 74 bb c1 ef 03 3d e0 a2 c4 bc 72 9b 0e bc
       -0.0037341178 0.03221107 -0.024003446 -0.008704053
000160 89 2f 61 bc 70 fd 75 bd db 09 db bb 91 af cb bc
       -0.013744243 -0.06005615 -0.0066845245 -0.02486399
000170 07 44 19 bd 19 ef d8 bb 19 4f e8 3d 96 69 f0 3b
       -0.03741839 -0.0066202995 0.11343212 0.0073368056
000180 d4 bc 89 bd ef ce df 3d a9 41 77 bc 3b 8b 7a bb
       -0.06725469 0.10928141 -0.015091338 -0.003822996
000190 b4 8b 34 bb a9 96 bb 3b e3 c2 ea bb 15 c7 34 3c
       -0.002754909 0.005724747 -0.0071643456 0.011033793
0001a0 a2 12 16 bd 04 09 87 bc ce 76 85 bd a2 fc 3f 3d
       -0.036638863 -0.016483791 -0.06516801 0.04687179
0001b0 ef cc 60 bd e5 52 85 bc ad c7 4e 3c 14 7d 09 ba
       -0.05488294 -0.016274879 0.012620849 -0.00052447733
0001c0 43 f5 6f 3c 82 69 c1 3b 08 11 25 3c 3e ae f4 3a
       0.014645877 0.00590247 0.010074861 0.0018667651
0001d0 f9 87 25 bd 99 8e e3 3c d8 9d 7f bc 3f eb b1 3c
       -0.040412877 0.027777957 -0.015601598 0.02171862
0001e0 6f 4c 78 bd 01 97 01 bd 62 19 1c bd 8c 04 2f bd
       -0.060619768 -0.03163815 -0.038110144 -0.042728946
0001f0 47 34 3a bd dc 64 3a bd 5a 79 50 3b c3 86 69 3c
       -0.04546001 -0.045506343 0.0031810612 0.014253321

weight f4 [64, 128]
000000 1c 87 0e bd cb 6d 46 3d 03 dd 2f 3d 11 3b 55 bd
       -0.03479682 0.04844455 0.042935383 -0.052058283
000010 f2 b5 17 3e 74 c3 8c bc 55 59 87 3d ec 23 bd 3d
       0.148155 -0.017183043 0.066088356 0.09235367
000020 c3 f1 25 3d a6 01 11 3d 00 db 1b bd a5 33 41 3d
       0.040513765 0.035401963 -0.03805065 0.047168393
000030 bd 0b 28 3d 0d 7e bf bd 92 cb 47 bd 09 ca 17 3d
       0.04102682 -0.09350214 -0.048778124 0.03705791
000040 94 2d 82 3c 13 6a c1 3c af af f3 3c f3 56 9d 3d
       0.015890874 0.02361015 0.029746858 0.076826
000050 2a 48 5b bd 36 b3 62 3c 53 45 f6 3d a8 bd 82 3c
       -0.053535618 0.0138366725 0.12024941 0.015959576
000060 b3 d0 e1 bc 3b 2d 00 3d e1 71 e4 bc 92 67 ea 3d
       -0.027565336 0.031293135 -0.027886333 0.11445536
000070 37 e4 e1 39 6b 7c 66 3c 8f 4e 08 3e b3 2e 12 3d
       0.00043085378 0.0140677495 0.13311218 0.035689067
000080 16 2c 53 bd e9 b5 c5 bd 0b 51 51 bd ee 34 86 b9
       -0.051555716 -0.09653837 -0.05110268 -0.00025597907
000090 27 88 6f bc 8d de 71 3d d4 a3 6d bd 3e 28 80 bd
       -0.014619864 0.05905013 -0.058017567 -0.062576756
0000a0 2e a9 2d bd 24 c9 3e 3b e5 30 59 bd a0 e0 bd bd
       -0.04239767 0.0029111588 -0.053025145 -0.092713594
0000b0 cd 70 3a 3d e9 f6 49 bd 95 01 da 3d 28 0b b3 bd
       0.04551773 -0.049307737 0.10644833 -0.08742362
0000c0 6e f6 3f bc 95 09 93 3d 72 06 3d 3d 82 7a 85 3d
       -0.011716468 0.07179562 0.046148725 0.06517507
0000d0 05 76 96 3d c1 22 24 bb ec 79 84 bc c8 55 3e 3c
       0.07346729 -0.002504513 -0.016171418 0.0116171315
0000e0 3c 01 7b bd 7e 6c 9a bd 75 da 8f 3d 99 4d 96 3d
       -0.061280474 -0.075402245 0.07024089 0.07339019
0000f0 fe 20 86 3d 9e 7b a9 bd ca ea 73 3c c1 11 33 bd
       0.065492615 -0.08275531 0.014887521 -0.043718103
000100 93 55 07 bd 61 25 01 bc 28 6c 5b bc e7 b1 a8 3d
       -0.033040594 -0.007882447 -0.013392486 0.08237057
000110 1f 50 a3 3d f4 59 49 3d af 3e 0f bd 48 3d ea 3c
       0.07974266 0.04915805 -0.03497189 0.028593674
000120 1b 8c a9 bc 23 a9 c1 3d e3 b0 9b bd 1e f6 f0 3d
       -0.02069669 0.094560884 -0.07602098 0.11765693
000130 b1 33 43 bd 2e d0 d6 bd 5a a9 bd 3c 57 12 89 bd
       -0.04765672 -0.10488926 0.023152042 -0.06692951
000140 ed 23 1a bd 79 16 a1 bd 22 c2 ca bb 96 8b 05 3d
       -0.037631918 -0.078656144 -0.006187693 0.032603823
000150 b1 7f 10 bd 54 de 89 3d a8 a0 9d 3d 85 d2 85 bd
       -0.035278026 0.06731859 0.076966584 -0.06534294
000160 76 db 5b 3d f5 e1 64 bd 1e 77 e1 3d e9 71 fb bc
       0.05367609 -0.055879552 0.11009048 -0.030693965
000170 58 e0 d8 3c 0b 61 6f bd 9e ec a7 bc 23 36 4e bb
       0.026474163 -0.058442157 -0.02049857 -0.0031465373
000180 70 84 f7 bd 0f dc a0 3d 0b 2e b4 bd 32 d5 c1 bd
       -0.12085807 0.07854473 -0.087978445 -0.09464492
000190 87 6d 3b bc 91 a3 9b 3d b8 59 89 3b 3e cc 75 bd
       -0.011439688 0.07599557 0.0041916035 -0.060009234
0001a0 8b 93 0c bc ba 08 03 3d 2d 37 41 3c 0e fd f4 bb
       -0.008580099 0.031990744 0.01179294 -0.0074764555
0001b0 b5 a4 d8 3c c4 a2 2f 3d 63 67 31 3d ba c1 8d bd
       0.026445726 0.042879835 0.043311488 -0.06921716
0001c0 23 3d 1b bc 6a 92 06 3b 2a 5b 33 bd 45 ff ad bd
       -0.009475025 0.0020534047 -0.043788113 -0.084959544
0001d0 9d 59 a8 3c 3e c3 21 3d 37 d4 1a bd 72 91 20 3d
       0.020550543 0.039492838 -0.03780004 0.039201207
0001e0 6d 8e 9e 3d 61 ca 8b 3d 36 b5 12 bd f4 b5 31 3d
       0.07742009 0.0682571 -0.035817347 0.043386415
0001f0 45 d3 97 bd fc 44 6d bd 38 1c 8c 3d 92 89 f8 bc
       -0.07413343 -0.057927117 0.0684132 -0.030339036
000200 d8 9c 7f 3b 49 e7 53 bd 38 59 9b 3d 68 1b fd bb
       0.0039003398 -0.051734243 0.075853765 -0.0077242143
000210 57 8c f3 bc 15 e0 9d bd 20 dc 38 bd f1 f2 b5 3d
       -0.029730005 -0.07708756 -0.045131803 0.08884228
000220 db 7c 91 bd 1e e8 a0 bd 7b cc 3b bb e9 5f b4 bd
       -0.071038924 -0.07856773 -0.0028655815 -0.08807356
000230 48 db 81 3d 72 91 2f bd 8c 4d 91 bd 77 0c a2 bd
       0.06340653 -0.042863317 -0.07094869 -0.07912534
000240 64 9a 79 bd 36 3f f0 3d 46 9d bc bd e3 12 0f bc
       -0.060938254 0.117308065 -0.09209685 -0.00873253
000250 39 1b 07 3d b7 5b 23 3d c1 23 08 3c dd 5c 33 bd
       0.032984946 0.039882388 0.008309306 -0.043789733
000260 b0 02 96 3d 6a e3 ac bc ad 2a ae 3d c4 a0 7b 3c
       0.07324731 -0.021104533 0.085042335 0.015358154
000270 15 04 42 3c 01 fd 67 3d a8 25 60 3e 33 81 7d 3d
       0.011841794 0.056637768 0.21889365 0.061890792
000280 16 66 77 3c 78 d0 a9 bd 53 3d a9 bd 4b 4d c4 3d
       0.015100023 -0.082917154 -0.0826365 0.09585055
000290 f5 6f 6b 3d f7 e5 ce 3c 07 60 85 3d d2 41 f3 3c
       0.057479817 0.02525614 0.065124564 0.029694472
0002a0 d3 97 fa 3c eb 2a 59 bd 6d 3e cc bd 1d be 26 bd
       0.030589974 -0.053019445 -0.09972844 -0.04070865
0002b0 03 ef a9 bd 21 8f cd bc 4b 7e 5b 3e c7 ea bf bd
       -0.08297541 -0.025092663 0.21434896 -0.09370952
0002c0 5c 06 23 3d 29 a9 27 bd e9 69 10 bd 08 f5 85 bc
       0.039800987 -0.040932808 -0.035257254 -0.016352192
0002d0 03 cd bf bb 5f e9 32 bd b6 72 44 3d 4e 3a bb bc
       -0.0058532967 -0.04367959 0.04796096 -0.02285495
0002e0 ea c7 20 bd 59 2f 8c 3d ef 73 12 3d 4d 29 2c 3c
       -0.039253153 0.06844968 0.035755094 0.010507894
0002f0 05 d0 22 bc f7 ac 93 3d 0e cd f6 bc ff b9 93 3d
       -0.009937291 0.07210725 -0.030127075 0.0721321
000300 ad 59 51 bc 41 70 76 3a a0 4d 89 bd bb 0f 4e 3d
       -0.012777728 0.00094008824 -0.06704259 0.05030797
000310 34 2c 0a 3e e2 22 41 bc 0e fe 5d bd 34 59 d1 3c
       0.13493425 -0.011788102 -0.054197364 0.02555523
000320 8f e9 47 3d 22 9f 4e bc d8 7d 9f bc 52 cf b9 bd
       0.048806723 -0.012611182 -0.019469187 -0.09072746
000330 9a 70 bf bd 9c 19 77 3d fe 9a 30 3c 28 c9 77 3d
       -0.09347649 0.060327157 0.0107791405 0.060494572
000340 09 95 71 bd 9a d3 da bc 0d 7a 0b bc aa 89 bf 3d
       -0.05898002 -0.026712228 -0.008512986 0.09352429
000350 ee b8 26 3d b4 03 fa 3d d0 c3 d1 3c c3 db 89 3d
       0.040703706 0.122077376 0.025606066 0.06731369
000360 03 67 ba 3b ef fa 89 3d 65 43 e2 bd 9e 32 5e bd
       0.0056885495 0.06737315 -0.11048011 -0.05424749
000370 e8 43 83 bd 56 fd a8 bd 36 da 92 bd ca 64 cc bc
       -0.064094365 -0.08251445 -0.07170527 -0.024950404
000380 9b 39 d7 bc 9e a4 a2 bc 95 07 7e 3c 84 1b 6a 3d
       -0.026272586 -0.019853886 0.015504737 0.057155147
000390 60 80 43 3d 24 a8 3b bd 8a 00 38 3d d9 5f 53 bc
       0.04772985 -0.04581465 0.04492239 -0.01290127
0003a0 8d 28 85 3c 63 cb ab bc a6 85 22 bd 9f 6b e9 bc
       0.016254688 -0.020971006 -0.03967824 -0.0284937
0003b0 9e 71 88 3d 07 3c 85 3d 97 fb 82 bd 3f 95 1b 3d
       0.06662296 0.0650559 -0.06395643 0.03798413
0003c0 52 d3 89 bc 6c 15 c1 bb 63 be 72 bc 7a 10 ac bd
       -0.016824398 -0.0058924463 -0.0148159 -0.0840158
0003d0 7a 9d 04 3d a6 69 f7 ba 40 54 04 3e 11 1a 9c 3d
       0.032376744 -0.001887609 0.12922764 0.07622159
0003e0 f5 d6 d2 3b ea 88 b1 3d 88 aa 98 3c 86 20 b7 3c
       0.0064343163 0.086686924 0.018636003 0.022354376
0003f0 e1 64 2a bd 44 03 7a 3d 7e a0 09 3d ad f3 87 3c
       -0.041600112 0.06103827 0.033600323 0.016595686

bias f4 [64]
000000 8c 49 af 3d 6e ff 72 3c 4d ed 25 3d 10 fd e7 bc
       0.0855895 0.014831407 0.04050951 -0.028318912
000010 fe c0 62 bd 07 c6 29 3d 1c a7 0a 3c 77 59 32 bc
       -0.055359833 0.04144862 0.008462694 -0.010885588
000020 88 d3 a5 3c 38 9d f3 3d c4 4a 17 bb 19 ee 66 bd
       0.020242468 0.118952215 -0.0023085335 -0.05637941
000030 ed 09 54 bd af 16 18 bd 8f 10 5c bb b1 ee 56 bc
       -0.05176728 -0.037131008 -0.0033579206 -0.013118432
000040 47 61 b1 3d 51 2b 5c bd 8c 99 1b bd d8 a0 5f 3d
       0.08661132 -0.053752247 -0.03798823 0.054596752
000050 ca 9e dc bd 62 ea b3 bd e0 ba ac bd 2b 50 c2 3c
       -0.10772474 -0.08784939 -0.08434081 0.023719868
000060 01 eb 61 bd 36 f0 77 bd 8a 9b ac 3c 54 af f6 bc
       -0.055155758 -0.060531817 0.02107026 -0.0301129
000070 fc c0 42 bd 1e 8d e0 3c f5 3b 77 bd 37 d7 06 be
       -0.047547325 0.02741104 -0.060359914 -0.13168035
000080 13 7b 51 3d 94 62 98 bd e5 cf 56 3d 70 95 d0 bc
       0.051142763 -0.07440677 0.052444357 -0.025461882
000090 03 32 c2 bd f9 85 2f 3d ae 52 25 3d 0e ab bf bd
       -0.09482195 0.042852376 0.040362053 -0.09358798
0000a0 d2 fa 00 be 5a 16 84 3d 8d 44 6b bc e3 6f 24 3c
       -0.1259568 0.06449576 -0.0143596055 0.0100364415
0000b0 77 c6 ac 3d 36 47 54 bc d0 96 84 3c 30 71 ca bc
       0.08436292 -0.012956431 0.016185194 -0.024712175
0000c0 05 23 7c 3c 25 de 66 bd 7c 94 55 bc 2f 8d b6 3d
       0.015389209 -0.056364197 -0.01303589 0.089136474
0000d0 68 df 8e 3d 2e e1 82 3b 4f 09 86 bc 19 f0 d4 bd
       0.06976205 0.0039941287 -0.01636186 -0.103973575
0000e0 43 3e 9c 3d 74 9e 78 3b c2 05 ad bd 30 7e 38 bd
       0.07629063 0.0037936242 -0.08448364 -0.045042217
0000f0 0a 27 3e 3c fb 8b 16 3e 2f b9 1a bd 36 ad 17 3b
       0.011605987 0.14701836 -0.03777426 0.0023144013
